assets/fault_model.pt (torch, 14469 bytes, 5 tensors)

weight f4 [64, 3]
000000 85 ad f1 be d2 6f 4e 3e 1a 3e fb 3e 84 33 5e be
       -0.47202697 0.20159844 0.49070817 -0.21699339
000010 8e 61 a7 3c b6 c5 16 3e 37 13 8f be 15 67 ce be
       0.02043226 0.14723858 -0.27944347 -0.4031302
000020 d2 2d 0a bf f6 bf c7 bd cc 4c 27 bf ec bd d0 be
       -0.53976166 -0.097534105 -0.6535156 -0.407699
000030 d1 eb 01 bf 7a 0f c6 3e 42 b9 99 be 27 b6 9c be
       -0.5075045 0.38683683 -0.30024153 -0.3060772
000040 45 3d 7f 3e e1 57 1f bf eb 36 17 3e 2d 7b a6 3e
       0.24925716 -0.6224347 0.14767043 0.3251585
000050 d4 76 12 3f 0c 4d 06 3f d0 3f 9f 3d e8 2a 14 3f
       0.5721257 0.52461314 0.07775843 0.5787797
000060 b4 d9 ef 3d d2 98 d5 be 20 18 f3 be 7f 1d 09 bf
       0.117114455 -0.41718155 -0.47479343 -0.5356063
000070 2b 3a 29 bf fa 87 ce 3e 9b 38 66 bd a2 39 91 be
       -0.6610438 0.40338117 -0.056206327 -0.28364283
000080 24 c8 13 3f b6 77 a8 bd 49 b6 fa 3e 1d 7a 4e 3d
       0.57727265 -0.08225958 0.48967198 0.050409425
000090 ea bd 18 3f ee 15 c4 bd e1 54 8c 3e a2 6d eb be
       0.59664786 -0.09574495 0.27408507 -0.4598208
0000a0 5a 09 d2 be 59 2c 8c 3e 16 83 d3 3e 9e 48 2a be
       -0.4102276 0.27377585 0.41310948 -0.16629264
0000b0 80 a1 03 3f b0 49 01 bf 46 7f b0 be 74 7c 23 3e
       0.51418304 -0.50503063 -0.34472102 0.15965444
0000c0 51 34 08 3f f4 fb 5e bb 46 7a 13 bd 6d 34 ee be
       0.5320483 -0.0034024687 -0.03600528 -0.46524373
0000d0 f3 f8 bd 3e 42 53 b8 3c 72 d8 f5 bd 01 d7 7f 3e
       0.37103996 0.022500638 -0.12004174 0.24984361
0000e0 3a 76 14 bf bb 48 13 3f 65 18 ff 3d b3 8b 76 be
       -0.579929 0.5753285 0.12455825 -0.24076729
0000f0 8b 05 a4 3e 65 8b c6 3d 59 b5 1d 3e d9 74 1f 3f
       0.3203548 0.09694556 0.1540121 0.6228767
000100 db f0 1b 3d f5 2a c6 be e1 82 d3 be bf e3 fd be
       0.038071495 -0.3870465 -0.4131079 -0.4958782
000110 bf 6f 1d 3f d7 de 70 be e6 0c 2e bf 2f 48 1f 3e
       0.61498636 -0.23522507 -0.6798843 0.1555488
000120 82 de 5e 3e da 20 48 3d 89 fa f1 3e f6 fa 24 be
       0.21764567 0.048859455 0.47261456 -0.16111359
000130 a9 5f 71 be 68 18 8f 3e e6 da a2 be 32 b6 3c be
       -0.23571648 0.27948308 -0.3180763 -0.18428877
000140 5f 2f e1 be 28 d5 ac 3e bf 18 fb 3e b0 b4 ee 3e
       -0.43981454 0.33756375 0.49042317 0.4662223
000150 9c 00 cc bd 7a 80 80 3e 03 b5 4e bd 71 7b 14 3f
       -0.09961054 0.2509802 -0.050465595 0.58000857
000160 c5 a2 25 bd 54 b0 5f be e1 78 0d bf d5 b4 92 be
       -0.040438432 -0.21844608 -0.5526257 -0.2865359
000170 aa 48 dd be 5b ba 10 3f cf 74 db 3c df 15 ca bc
       -0.432195 0.56534356 0.026789097 -0.024668632
000180 2b 03 d0 be ae 23 e5 3e f7 5f 1d 3e 3e 03 5a 3d
       -0.40627417 0.44753784 0.15368639 0.05322575
000190 3d e1 33 bd 6e 31 ae be 16 0f c0 3e 7b a3 7b 3e
       -0.043915976 -0.34022087 0.3751151 0.24574082
0001a0 ab 79 ae 3e a7 8f 1c 3f 10 18 36 3e 71 6f 60 3e
       0.340772 0.61156696 0.17782617 0.21917512
0001b0 79 e8 bd 3d 35 28 cd be 33 e0 1f bf 84 8b 3e bd
       0.09272856 -0.40069738 -0.62451476 -0.04651977
0001c0 2b ea 64 be 52 bd d1 be 57 83 fd 3e 01 0e 08 3d
       -0.22354953 -0.40964752 0.49514267 0.03321648
0001d0 4e cd 3c be 02 f5 01 3f 51 30 cd 3e 01 c5 28 be
       -0.18437693 0.5076448 0.40075925 -0.16481401
0001e0 fa ee 04 3f 21 13 77 3e 9c 03 7b be 88 fe ed be
       0.5192715 0.24128391 -0.24513096 -0.46483254
0001f0 d2 fc 64 3e 05 dd f0 be 30 e7 29 bd 45 50 1e 3e
       0.22362068 -0.47043625 -0.041480243 0.15460308
000200 9c 38 38 bd 05 98 c4 3e 2e 6e f6 3b 45 d8 38 be
       -0.044975862 0.38397232 0.0075204587 -0.1805125
000210 2e 70 03 bf eb d9 bc 3d 5b 69 f9 be 26 7b c3 bd
       -0.5134305 0.09221252 -0.48713192 -0.09544973
000220 cd ce 01 3f d5 4b bc be b4 f2 06 3f 67 31 83 be
       0.5070618 -0.36776605 0.52714086 -0.25623628
000230 1b 57 19 be 9e 88 11 bf e9 f1 ec 3d 88 82 47 3e
       -0.14974634 -0.56849086 0.11569578 0.19483387
000240 44 97 0d be 1f 1d 06 bf d7 45 ea 3e ec b4 c8 be
       -0.13827235 -0.52388185 0.4575641 -0.39200532
000250 42 dd 10 bf 4c dc de 3e ff 1a 07 3f 66 db 38 be
       -0.5658761 0.43527448 0.5277557 -0.18052444
000260 74 94 71 be 4d e4 97 be 2d 50 85 be 0b 4f 1b be
       -0.23591787 -0.29666367 -0.26037732 -0.15166871
000270 09 5b c7 3d 4a 8c 51 3e 95 6d e7 bd 38 42 0d bf
       0.097341605 0.20463672 -0.11300198 -0.55179167
000280 da ee fd 3e 8e 37 08 bf 71 29 6a 3e 1d ab 62 be
       0.49596292 -0.5320977 0.22867371 -0.22135587
000290 c5 df 59 3c d1 15 8e 3e dc c4 d5 3e 26 89 12 3f
       0.01329798 0.2775102 0.41751754 0.5724052
0002a0 0c 63 95 be 69 1c 1c 3f 2b c0 b1 bd bd a9 fc 3e
       -0.2917713 0.6098085 -0.08679231 0.4934825
0002b0 67 b9 28 be 5f 01 b5 3e 13 79 de 3d fa 4b 1a 3f
       -0.16476975 0.3535261 0.10862937 0.6027218
0002c0 42 95 83 3e 7b 48 86 be 23 54 e8 3d d0 00 c6 be
       0.25699812 -0.26227173 0.11344173 -0.38672495
0002d0 3d b2 7d 3d 7c fd a2 bc 02 12 e7 3e 1e 70 12 bf
       0.06193756 -0.019896261 0.45130926 -0.5720233
0002e0 35 bb 69 3e ca 55 05 3f aa 9c d0 3e 67 05 d1 be
       0.2282532 0.5208403 0.40744525 -0.40824434
0002f0 0b 64 e8 be 73 96 e0 be c7 3d b5 3e 57 8e d5 3e
       -0.45388827 -0.43864784 0.35398695 0.4171016

bias f4 [64]
000000 c0 90 3b 3e eb fb c8 3e 57 09 a1 be b8 66 0e 3f
       0.18316936 0.39254698 -0.31452438 0.55625486
000010 e8 17 1e 3f 35 7d 62 3e 8d d0 da 3e bf 03 7b bd
       0.6175523 0.22118075 0.42737237 -0.06128287
000020 7b 32 a1 be 5b f5 80 3e a2 13 e7 be 68 e1 06 3f
       -0.31483826 0.2518719 -0.45132166 0.5268769
000030 09 02 e0 be 4b 3e 6b 3e 69 a2 d1 be 13 e7 80 be
       -0.43751553 0.22972982 -0.40944222 -0.25176296
000040 9f 95 90 be c8 74 e3 be 70 10 4f be 1d 30 a6 be
       -0.28239152 -0.44425035 -0.20221114 -0.32458583
000050 ae 7a c8 3e 6d 44 ae be 34 85 db 3d b8 7e fd bd
       0.39156097 -0.3403658 0.10718766 -0.12377685
000060 4d e6 7a 3b ce 3f 18 3f 0b cc f7 be 5c d2 88 bc
       0.0038284243 0.5947236 -0.4839786 -0.01670187
000070 cd d6 4d 3e 2b 0d d4 bd e1 dc bd bd ea b0 75 be
       0.20101471 -0.10354074 -0.09270645 -0.23993269
000080 ba 38 ee be 78 da ef be da d8 8c be c2 db a3 be
       -0.46527654 -0.46846366 -0.27509195 -0.320036
000090 a8 02 84 bd 36 59 b0 bc f6 8a 74 bb c4 cd 14 bf
       -0.06445819 -0.021526914 -0.0037314272 -0.58126473
0000a0 49 9b 4d be e6 5d d3 be 87 1d e6 3d a3 c8 4c be
       -0.20078768 -0.41282576 0.11236101 -0.19998412
0000b0 68 63 ed be d3 f9 a8 3e 5a c8 d6 bd 77 5a 86 3e
       -0.46364903 0.330031 -0.10487433 0.26240894
0000c0 d8 92 4a 3d 4a 95 4b 3c 22 42 7e be ae d9 0e bd
       0.049456447 0.01242573 -0.24829915 -0.034875564
0000d0 8a 21 17 3e ac db 12 3f d5 6e 82 3e 63 c8 86 3d
       0.14758888 0.5736644 0.25475183 0.065811895
0000e0 b9 a1 06 be c3 c2 26 be a0 b1 72 be b9 cf a9 3e
       -0.1314763 -0.16285233 -0.23700571 0.33166292
0000f0 c3 62 f6 bd 64 10 ce be e7 b1 a7 3e 07 a2 b0 be
       -0.12030556 -0.4024688 0.32752916 -0.34498617

weight f4 [32, 64]
000000 5a 2d 11 3e e8 b1 45 3d 63 0d be 3d 2c 3f 59 bc
       0.14177456 0.048265368 0.09279897 -0.01325969
000010 ca ba 2b 3e 70 39 05 3e e8 4c 99 3d 8e f0 7d bd
       0.16770473 0.13010192 0.07485372 -0.06199699
000020 3f 23 20 3e be 92 39 3e 35 eb 4b be b3 ff bc 3b
       0.15638445 0.18122384 -0.19913943 0.0057677864
000030 3c 94 a6 3c e1 76 5e 3d 8b 78 ad bb 3a 86 03 3e
       0.020334356 0.05431259 -0.005293911 0.12844172
000040 6b 74 53 be ee c9 b3 bc 43 2f 37 3d fd 1c 51 be
       -0.20649879 -0.021946874 0.044722807 -0.20421214
000050 69 9d 58 3d 48 14 e7 bd 1e b1 d0 bb 58 f6 25 3d
       0.052884493 -0.11283165 -0.0063687703 0.040518135
000060 29 12 82 bc bf 8f 84 3b d0 c5 18 3e f0 ee 94 bc
       -0.0158778 0.004045456 0.1491921 -0.01818034
000070 8e 6a 4a 3e 01 d2 9c 3c 78 82 b8 3c 40 eb 12 be
       0.1976721 0.019143106 0.02252315 -0.14347553
000080 5a 9c 9d 3c de 03 cd bd a0 84 60 3c fa 03 03 3d
       0.019239593 -0.10010503 0.013703495 0.031986214
000090 8c 80 80 3d 35 88 3f 3e d9 2d c6 3d b6 5a e7 bd
       0.06274518 0.18704303 0.096767135 -0.112965986
0000a0 62 16 c1 bc f8 54 1f 3e 39 f2 0a 3e 66 77 82 bd
       -0.023570243 0.15559757 0.13568963 -0.0637043
0000b0 2d 93 d2 3d f8 63 17 3e 59 13 09 3b 97 0b e2 ba
       0.10281978 0.14784229 0.0020916073 -0.0017245886
0000c0 7d e6 1c bd 39 14 98 3d 42 63 d4 bd a1 56 66 3d
       -0.03830575 0.07425732 -0.103704944 0.05623496
0000d0 5a 0f dc 3d c4 8a 20 3e 64 ef db 3d 3e e9 c4 3d
       0.107451156 0.15677935 0.107390195 0.096148
0000e0 7a ef 6d 3d 6b 8d 34 3c 40 12 bd bd 74 99 ae 3d
       0.05808971 0.011020045 -0.092319965 0.085253626
0000f0 54 db 1e bd f0 f7 0c be b8 df cd bc 0e 35 58 3c
       -0.038783386 -0.13766456 -0.025131091 0.013196243
000100 d5 de 28 3d 65 29 2d 3e f2 a4 5a bb 10 ae 06 bc
       0.041228134 0.16910322 -0.0033362475 -0.008220211
000110 65 78 36 3d 71 61 fb bc b8 90 c5 bc 87 98 e3 bc
       0.04454841 -0.030686112 -0.024116859 -0.027782692
000120 73 c9 95 3d d3 94 c7 3c fa f5 da ba f2 52 f6 3d
       0.07313814 0.024362957 -0.0016705387 0.12027539
000130 f1 42 38 be b5 ad 60 bc da cb e5 bc 22 bc d0 3d
       -0.17994286 -0.01371329 -0.028051306 0.101921335
000140 87 e0 10 be b7 80 8d 3d 24 71 de bc e2 a4 47 be
       -0.1414815 0.06909316 -0.027153559 -0.19496492
000150 d8 f0 1b 3e 7d 89 ec bc fe 9c 4b 3d f0 9b e2 3d
       0.15228593 -0.028874153 0.049710266 0.11064899
000160 ab b3 84 bd 3c b7 30 3e 40 df 4e 3e 30 cc 57 bc
       -0.064795814 0.17257398 0.2020235 -0.013171241
000170 a4 6c 4c 3e 99 36 1c bc 52 ff e8 3d c6 8b 1e 3d
       0.19963318 -0.0095345015 0.113768235 0.038707517
000180 da 9d 0a be 3b 8a 0d be a8 c6 14 bd 57 8e 20 be
       -0.13536778 -0.13822262 -0.036322266 -0.15679298
000190 6d fd ad 3d 13 ac 71 3c ee e9 24 bd 3a 3f 90 bd
       0.08495603 0.014750498 -0.040262155 -0.070433095
0001a0 e4 e3 9b bc 71 e9 34 3e 10 5a 45 3e ca 26 48 be
       -0.019029565 0.17667176 0.19272637 -0.19546047
0001b0 77 ad 97 3d a2 30 7f bc 88 7a 18 bc a9 44 17 3c
       0.07406133 -0.01557556 -0.0093065575 0.009232678
0001c0 c5 d0 b7 3d 07 18 93 bd 2b 89 0a be a2 2b d9 3d
       0.089753665 -0.07182317 -0.13528888 0.106040254
0001d0 ce 3f 2d 3e b9 71 0c 3e 8a c5 2a 3e 70 a4 e2 3c
       0.16918871 0.13715257 0.16676918 0.0276663
0001e0 d0 4d 1b 3d 00 dd e8 bd 01 24 a5 3d dd c4 c7 bc
       0.037916005 -0.113702774 0.08063508 -0.024385864
0001f0 97 75 fc bd d7 08 57 be c4 1f da 3d 1a 30 34 be
       -0.12327116 -0.20999466 0.1065059 -0.17596474
000200 39 99 51 bd d3 5f 81 bc 47 fc 0e 3e c9 cd 48 3e
       -0.051171515 -0.015792763 0.13963424 0.19609751
000210 38 ce 4d 3d 9e 96 44 3d 6c 4f 88 bd 66 eb 78 3d
       0.050245494 0.047995202 -0.066557735 0.06077137
000220 5c 76 eb 3c c3 67 0d 3e 85 fa 22 be 94 59 b0 3c
       0.028742962 0.13809113 -0.15915878 0.02152709
000230 c7 54 fd bd 36 9f c1 3d fc 0d 48 be aa 51 ad bd
       -0.123696856 0.09454195 -0.19536585 -0.08462842
000240 f1 72 49 bd 58 bd 8f 3d 17 15 d8 3d f2 04 48 be
       -0.049181882 0.07018536 0.105508976 -0.19533136
000250 63 64 0c bd 73 23 52 3b 3a 1e 02 3d 77 14 21 3e
       -0.034275424 0.0032064586 0.031767108 0.15730463
000260 5c b1 14 be b7 ef f0 3c 76 8d 0a 3d 7c 9a e2 3c
       -0.14520782 0.02941118 0.033826314 0.027661555
000270 0f cf 5a 3e c3 20 e7 3c 09 0e a5 3d 98 b7 06 be
       0.21368049 0.028213864 0.080593176 -0.13155973
000280 e5 49 8a bc 38 b0 e5 bd 3f f0 1c be f0 25 1e be
       -0.016880939 -0.11215252 -0.15326022 -0.1544416
000290 89 53 5a 3d eb 19 1c bd 83 08 55 bd 39 bf 45 3c
       0.05330232 -0.038110655 -0.05201007 0.012069517
0002a0 69 3d a4 3c 99 64 1b 3e 57 2f 89 bc 73 a8 aa bd
       0.020048814 0.15175094 -0.016746206 -0.083329104
0002b0 89 b6 14 bd 58 fc 88 3d ce 9a 94 3d 4e 68 5a 3d
       -0.03630689 0.06688756 0.07256089 0.05332213
0002c0 ce da 04 3e 79 2c 26 3e 9d 66 26 bd d1 70 39 3e
       0.12974092 0.16227902 -0.040625203 0.18109442
0002d0 ac 76 54 3d 88 d9 94 3d d1 86 df 3d 9c 59 80 bd
       0.051870987 0.07268053 0.10914386 -0.06267092
0002e0 da 13 95 bc 2c 38 f0 3b 1c 15 eb bc 0f f4 ba 3c
       -0.018197943 0.007330915 -0.02869659 0.022821454
0002f0 c0 5d 47 bd 43 a3 0a be a3 ca 15 3e 13 bd 47 bd
       -0.04867339 -0.13538842 0.14628081 -0.0487643
000300 22 b7 3e bd d9 0f 05 be 2a 47 9a 3d 85 e6 b6 bd
       -0.046561368 -0.12994327 0.07533105 -0.08930687
000310 70 a5 c2 bd a8 0e b3 bd 52 73 61 3d d7 e8 df 3d
       -0.09504211 -0.0874303 0.05504162 0.109330826
000320 68 6e 4b 3e a0 30 00 bd 2c 11 c4 3d 4e 85 43 3d
       0.19866335 -0.031296372 0.09573588 0.04773455
000330 8c 1c 0c 3e 89 18 66 3c 2d db a4 3d de 1d 30 3e
       0.13682765 0.014043936 0.08049617 0.17198893
000340 2a 75 30 3e e1 9d 1f bd 25 9c 2a 3e 7e 78 e1 3d
       0.17232195 -0.038968924 0.16661127 0.1100931
000350 3e d1 d5 3d 4a e0 73 bc b8 c0 0b 3e 2d 95 02 bd
       0.104403004 -0.014885018 0.13647735 -0.031880546
000360 bc 42 9d 3d 05 ed 45 bd 2f bb ce bc 2e 9c 7c 3c
       0.07678744 -0.048321743 -0.02523574 0.0154180955
000370 bb 34 17 be 41 3d d3 3d c0 2c 19 bd 34 51 23 3c
       -0.14766209 0.10314418 -0.037396193 0.009968091
000380 48 13 3b 3e 27 96 21 3d 90 50 04 3e 92 4c 3d 3e
       0.18269074 0.039449837 0.12921357 0.1848624
000390 18 99 32 3d 07 4e f0 3c e0 ba e0 3d b7 c4 c9 3c
       0.043603033 0.029334081 0.109731436 0.024629934
0003a0 ff ee 5d 3e c3 0f 49 bd ab 9d 98 bd 78 78 45 3e
       0.21673201 -0.049087297 -0.07451948 0.19284236
0003b0 d1 4b cc bc 10 9a a4 bd d1 b5 0d 3e 86 a7 a2 3d
       -0.024938496 -0.080371976 0.13838889 0.07942109
0003c0 66 85 ab 3c c8 1b 0c 3d 1a 4c ce 3d 8a 74 f1 bc
       0.020937633 0.03420618 0.10073109 -0.029474515
0003d0 fb 8a 8c 3c 2f 8e 08 be 3e f0 7b 3c de 08 1a 3e
       0.017156115 -0.13335489 0.015377102 0.15042445
0003e0 04 b6 f6 bc d6 52 13 bc d3 e1 74 bc 37 77 cb bb
       -0.030116089 -0.008991918 -0.014946419 -0.00620928
0003f0 0b 97 3c 3e 50 c8 38 3d 20 6e ce bb 51 c5 4c 3e
       0.18416993 0.045112908 -0.006299749 0.19997145

bias f4 [32]
000000 ef 71 4c 3d c2 1c 28 3e 70 c0 86 3d c8 60 12 3c
       0.049913343 0.1641722 0.06579673 0.008934207
000010 63 f4 f4 bd 6e fd 4f 3e 7a f2 b9 bd f9 38 2c be
       -0.119606756 0.2031152 -0.09079452 -0.16818608
000020 27 6d 98 bd b4 f0 97 bc 0f 9b 6e 3d 69 42 e7 3d
       -0.07442694 -0.018547393 0.058253344 0.112919636
000030 3d 22 47 3d de 22 52 be 16 78 12 bd 8e 04 32 3c
       0.048616637 -0.20521113 -0.035759054 0.010865344
000040 e3 f8 a5 3d 75 e7 99 bd 28 25 4c bd 69 25 22 3e
       0.08104112 -0.0751485 -0.049840122 0.15834583
000050 ea 7a 11 3d 36 12 bf bc ef d0 15 be 9b ab c1 bd
       0.03551761 -0.023324113 -0.14630483 -0.09456559
000060 01 f7 4a 3d 7e d4 a8 bd 84 8b 01 3e 8c 94 00 be
       0.049551968 -0.08243655 0.12650877 -0.12556666
000070 e9 85 14 3e 19 16 f8 3d 0e e4 be 3d c6 b9 7f 3b
       0.14504208 0.1211359 0.09320842 0.0039020642

weight f4 [1, 32]
000000 6b fd 1f be d8 f7 50 be ec ef 69 be 47 9d 4b 3e
       -0.15624015 -0.20407045 -0.22845429 0.19884215
000010 44 d7 01 3e 25 0f 57 be 38 29 c6 3d bc ff 84 3e
       0.12679774 -0.21001871 0.096758306 0.2597636
000020 fc 8e 6d 3e 1e 75 80 be bc df 26 be 74 3c 0f be
       0.23199075 -0.25089353 -0.16296285 -0.13987905
000030 0b bf 66 be 2e 35 26 3e 1d 62 67 be 4c a8 15 be
       -0.22533815 0.16231224 -0.22596021 -0.14614981
000040 51 40 64 3e 46 cf 03 3e b7 1b 32 3e e2 f5 20 be
       0.2229016 0.12872037 0.17393385 -0.15718797
000050 62 4b 9d bc 29 9c c4 bd 87 6d 87 3e f9 2d 41 3e
       -0.019200984 -0.09600098 0.2645075 0.18865193
000060 d6 d7 0c be 60 b1 0b 3e 90 db 63 be b5 41 89 3e
       -0.1375421 0.13641882 -0.22251725 0.26807943
000070 34 ce 4f be ca 50 f8 bd 19 85 c0 bd 23 ed 1f be
       -0.20293504 -0.12124784 -0.09400386 -0.15617804
