assets/fault_model.pt (torch_old, 27370 bytes, 5 tensors)

weight f4 [64, 3]
000000 7d 53 53 be e8 22 64 3e f4 07 84 be 1c e3 e4 3e
       -0.20637317 0.2227894 -0.25787318 0.4470452
000010 1e c0 30 3e 8c 7a 0f be 5f c2 8f 3d ab e0 80 be
       0.17260787 -0.14011592 0.07019495 -0.25171408
000020 2f 2e 9f be 81 50 0b 3f 64 83 91 bd e3 0c 25 be
       -0.31089923 0.54419714 -0.07105139 -0.16118197
000030 df d8 f1 be 7c bc a2 3d 82 7b 4b be 43 71 ca be
       -0.47235772 0.07946107 -0.19871333 -0.39539537
000040 e9 ba 81 be e8 6c c4 be c9 67 d2 bd ef bc 52 be
       -0.25337914 -0.3836434 -0.10273702 -0.20579885
000050 ed 77 cd bd cd 76 36 be 2d 36 ca 3e 8a c0 bb be
       -0.1003264 -0.17818756 0.39494458 -0.36670333
000060 9c 1c 1a be bd e0 17 bf fd 68 a6 be 76 d0 08 bf
       -0.15049976 -0.593273 -0.32501975 -0.53443086
000070 9a d6 d7 3e 7f 1a 78 be 88 d3 87 3e 4f 7e d5 3e
       0.42155915 -0.24228857 0.26528573 0.41697928
000080 98 6e 15 3f d4 dd f4 bd 0c b3 00 bf d8 47 a8 be
       0.5837188 -0.11956373 -0.50273204 -0.32867312
000090 69 c9 cb 3d fe 40 75 be 77 61 2d 3e 91 bf a9 be
       0.09950525 -0.23950574 0.16931711 -0.33153966
0000a0 8b 0b f3 3e 7a 9d 38 3d d6 6c 04 bf ff 1f d0 3d
       0.47469744 0.045072056 -0.5172857 0.10162353
0000b0 6a 7b b7 be 27 63 37 3e 5c 18 d5 bd f9 20 30 3d
       -0.35836345 0.17908917 -0.10405037 0.043000195
0000c0 9c d2 d8 be 24 8f 56 3e c7 60 95 be 68 69 bd be
       -0.42348182 0.20953041 -0.29175398 -0.3699448
0000d0 b7 c8 fe be 4b 3d 56 be 44 4f 2d 3f 1d 78 85 be
       -0.49762508 -0.20921819 0.67699075 -0.26068202
0000e0 8c f0 e2 be 3d 66 ff be 64 09 8f 3e fe 04 f7 be
       -0.44324148 -0.4988269 0.27936852 -0.48245996
0000f0 93 0c c3 3e 7a b0 92 3e 16 9d 51 3e b1 75 85 be
       0.3809553 0.28650266 0.2047008 -0.26066354
000100 ba cd 04 3f d6 db 28 bd 9a 1e 2e be c9 7c 16 be
       0.51876414 -0.041225277 -0.17003861 -0.1469604
000110 63 3f d0 be f6 4c f0 bd dd e9 ea bd 04 19 55 be
       -0.4067336 -0.11733429 -0.11470387 -0.20810324
000120 29 28 99 3d 78 2c 1a 3f 31 b3 e6 be 39 ed ac be
       0.07478363 0.60224104 -0.45058587 -0.33774737
000130 26 18 1f be da e9 95 be f9 73 e1 be 23 d5 dc 3e
       -0.15536556 -0.29279977 -0.44033793 0.4313136
000140 75 bf 4a bd a2 09 92 bd c5 93 1e 3d d7 91 07 3f
       -0.049498994 -0.071307436 0.038715143 0.5295691
000150 17 ed 06 3e 0c de 3c be f6 3d 39 3e bf d1 44 be
       0.1317638 -0.18444079 0.18090042 -0.19220637
000160 dd 27 66 be d4 19 b5 3d b1 05 62 3e c1 bb ea be
       -0.22476144 0.08842817 0.22072484 -0.4584637
000170 ee 56 95 3e 4b 48 18 3d eb e6 12 3f e5 64 79 bd
       0.29167885 0.03717832 0.573836 -0.060887236
000180 0a 0d 0c bc 8a 61 56 bd 12 b3 80 be fd 84 12 bf
       -0.008548031 -0.052339114 -0.2513662 -0.57234174
000190 f4 89 e6 3e d5 c4 18 3e ae 16 0e bf ea 46 9a be
       0.45027125 0.14918835 -0.55503356 -0.30132228
0001a0 85 b9 1f 3f 52 8c e7 bd 1f 0f 89 be 94 bc 4d be
       0.62392455 -0.11306061 -0.2676935 -0.20091468
0001b0 05 f8 07 3f af 7c 99 be 82 37 0d be c2 d7 03 bf
       0.5311282 -0.2997794 -0.13790706 -0.51501095
0001c0 e2 e6 d2 3e 62 80 03 bf 65 d2 95 3e 57 68 fe 3d
       0.41191775 -0.5136777 0.2926208 0.12422245
0001d0 e8 3e d8 be c5 35 a9 be dd 62 02 bf c5 a2 4c bb
       -0.42235494 -0.33048835 -0.50932103 -0.0031224948
0001e0 b5 ce e8 3e 03 84 a5 bd 4e 84 de 3e fd 46 a6 be
       0.45470205 -0.0808182 0.43460315 -0.32476035
0001f0 02 6e 60 be c7 24 23 3c fe b7 8b 3e a3 01 e0 3e
       -0.21916965 0.009957499 0.27288812 0.4375125
000200 33 79 0e bf 2c cd 7a 3e 9e 28 df 3c ad 76 b9 3e
       -0.55653685 0.2449233 0.027241047 0.36223355
000210 ef 97 c4 be 66 87 ba 3e 2b 59 24 be 58 cf d6 3e
       -0.38397166 0.36431426 -0.1604964 0.41955066
000220 11 2d c2 bd c9 6b ae 3e eb ea 3f 3e 8a 6a 21 bf
       -0.09481252 0.3406661 0.18741958 -0.6305319
000230 98 95 cc be 9a f9 61 be 59 24 d1 be e0 93 b9 be
       -0.3995788 -0.22067872 -0.40848044 -0.36245632
000240 5b ee 5b be 43 4a 8c be fa 1e 07 bf 17 86 21 3e
       -0.21477644 -0.27400407 -0.5278164 0.15773807
000250 d5 40 56 be d7 e5 14 be 9e 99 e4 be 21 b9 b7 3e
       -0.20923169 -0.14540802 -0.4464845 0.3588343
000260 ce fc bf 3e a9 06 16 bf 4e 7a ae 3d a5 16 1e bf
       0.37497562 -0.5860391 0.085194215 -0.617533
000270 e6 a1 f3 bc f0 fd 03 bf ba 20 a6 3e 3a 0f f8 be
       -0.029740285 -0.5155935 0.32446843 -0.48449117
000280 0c 54 92 3e ea fe d5 3e eb de 90 be 49 b2 b6 bd
       0.28579748 0.41796046 -0.28295073 -0.08920724
000290 7a 14 25 3e d5 0f 04 3f 42 0c f4 bc e2 e6 d6 be
       0.16121092 0.5158666 -0.029791001 -0.41973025
0002a0 5d 4c fc bd 1e 49 d5 be 75 b5 5a bd eb fa bf 3e
       -0.12319253 -0.41657346 -0.053395707 0.37496123
0002b0 c3 8e fa 3e 2c c2 19 3f 8f d5 0c be c0 16 37 3e
       0.48937044 0.6006191 -0.13753341 0.17879772
0002c0 07 95 10 bf 2f b9 56 3e c0 89 71 3e 20 00 ff be
       -0.564774 0.2096908 0.23587704 -0.49804783
0002d0 78 d6 90 3e bf 59 22 bc 86 a6 b5 bd a5 df cb 3e
       0.28288627 -0.009909092 -0.088696525 0.39819065
0002e0 d4 18 a5 be 86 f1 d0 be 04 df 14 be 76 1e f5 3e
       -0.32245505 -0.40809268 -0.14538199 0.47874802
0002f0 69 ca 4d 3e 22 48 34 3d 97 e2 e2 3d a6 e2 d0 3e
       0.20096745 0.044014104 0.11078375 0.4079792

bias f4 [64]
000000 48 65 d6 bd 7a e8 99 bd 71 74 c1 bc 76 ed 2d be
       -0.104685366 -0.075150445 -0.023615094 -0.16985115
000010 a9 75 05 3f f0 29 9f be 6a 05 86 be 07 b8 17 3f
       0.5213266 -0.31086683 -0.26176006 0.5926518
000020 0a 1b c3 bc c3 65 4a 3e 07 55 a5 3e 2b f8 37 3d
       -0.023816604 0.19765382 0.32291433 0.044914406
000030 b7 f0 0c 3f c0 d4 e8 be f0 a5 02 bd bf 7c c1 3e
       0.550548 -0.45474815 -0.03189653 0.37790486
000040 72 7b c1 3d 7a 8c 86 be 04 fd ee be fa 2e cf 3d
       0.094473734 -0.2627905 -0.4667741 0.10116382
000050 98 62 07 bd ed db 4d 3e 3a e8 28 3f 06 49 cc bc
       -0.03305301 0.20103426 0.6597935 -0.024937164
000060 5a 82 c0 3e f7 ef 61 3d 61 f2 26 3e 3f 7d b8 be
       0.3759945 0.05516049 0.16303398 -0.36033055
000070 ac 55 d0 3e 7a 8a a6 3e 69 88 d8 be 7d 0f 34 3e
       0.40690362 0.32527524 -0.42291573 0.17584033
000080 a2 52 10 3f 15 cd 26 3f d5 53 87 be 61 9c 8b 3e
       0.5637609 0.6515668 -0.26431146 0.27267745
000090 b1 4a 8d be 35 bd 28 3f a4 46 1c be 8d 0c 1f bc
       -0.27596048 0.65913707 -0.15261322 -0.009707582
0000a0 9d 4e 60 be 3f 5e 88 3e d8 87 b3 be cb 98 b9 3e
       -0.21904989 0.26634404 -0.35064578 0.36249384
0000b0 6b 08 62 3e dc 5c 33 be 9a 78 ae 3e 32 09 2b 3f
       0.22073524 -0.17515892 0.34076387 0.66810906
0000c0 9a f2 5a 3e e5 be 63 3e 81 60 20 3f 93 d9 a7 bd
       0.21381608 0.22240789 0.62647253 -0.08195796
0000d0 51 c2 08 be 42 1a f3 3e 73 80 07 3e cf 60 59 be
       -0.13355376 0.4748097 0.13232593 -0.21228336
0000e0 4b 70 c0 bd f1 f8 c3 be 61 9d f2 bd e9 bc c8 be
       -0.09396418 -0.38275865 -0.11846424 -0.39206627
0000f0 66 92 bb bd 20 db de 3e 0f 0e be 3e e6 8c b3 be
       -0.09158783 0.43526554 0.371201 -0.35068434

weight f4 [32, 64]
000000 48 2d 73 3d 70 bb 4d 3c 71 53 c6 3d f7 55 2d 3e
       0.059369355 0.012556896 0.09683884 0.16927324
000010 fa 4b 34 bc 27 1b fe bc 58 7a c4 3d f2 59 25 3b
       -0.011004442 -0.031018807 0.09593648 0.0025230614
000020 67 6a 1c 3d 00 e4 39 3d 2a 4a a1 3d 45 df 50 3c
       0.03818741 0.045383453 0.07875474 0.012748544
000030 61 cd 81 bd fe a1 e7 3d 32 ba 0d bd c1 2b f2 3d
       -0.06338001 0.113101944 -0.034601398 0.11824752
000040 78 9c 1f bc 2e aa 99 bd 10 63 5a 3e 6e 08 0b be
       -0.009741895 -0.07503162 0.21326852 -0.13577434
000050 b0 30 32 3e 39 9f b7 bc f8 63 0d be 1e 77 97 3d
       0.17401385 -0.02241479 -0.13807666 0.07395767
000060 91 cf c4 3d 86 7b 14 be 0e 74 b3 bd 08 3d 56 3e
       0.09609903 -0.14500245 -0.0876237 0.20921719
000070 5d 1a 9b 3d 1f 73 8b 3d d9 cc ad 3d 82 7c d1 bc
       0.07573388 0.06809067 0.08486337 -0.025572065
000080 88 68 de bd 00 e0 d8 bd c8 37 17 3e d8 6c 8e bd
       -0.108597815 -0.105895996 0.14767373 -0.06954354
000090 db 24 14 3e dd 65 18 bd e6 a7 3d 3d 45 56 a0 bc
       0.14467184 -0.03720652 0.0463027 -0.019572387
0000a0 ef 87 dd 3c d2 62 a9 3c 7e 33 cb 3d f3 41 eb 3d
       0.027042357 0.020677004 0.09921931 0.11487188
0000b0 04 31 83 3d 98 a4 cb 3d a6 7b 4f 3d bf 61 30 3d
       0.06405833 0.09943503 0.05065503 0.043061968
0000c0 60 0a ff bd bd 71 d3 3d a4 64 8c 3d 50 3e 0e bd
       -0.12453151 0.10324428 0.06855133 -0.034727395
0000d0 43 7d 3a bd 3d 19 72 bd 62 53 0a bd e9 82 71 3a
       -0.045529615 -0.0591061 -0.033770926 0.00092129275
0000e0 26 0d 87 3c 8f 19 1a 3e cf 4e 03 3e 52 57 42 3e
       0.016485762 0.15048812 0.12823032 0.18978623
0000f0 2d d9 85 3d 6e 24 0b bc 14 ac 60 3c 09 c1 10 3e
       0.065355636 -0.008492572 0.013712902 0.14136137
000100 73 98 2c 3e fe 89 02 3d 91 6d 32 bc 4e 6c 21 be
       0.1685503 0.03186988 -0.0108903805 -0.15763971
000110 25 e4 bc bb 05 f2 c2 3d 26 60 8d 3d b9 40 0c 3e
       -0.0057645016 0.09518818 0.069031045 0.13696565
000120 3e 2f ea 3d a0 93 29 3e 95 c9 f2 bd f0 9e 9f 3d
       0.11434792 0.1656022 -0.11854855 0.07793987
000130 bf 5a 34 bc 06 57 54 3d 3f 19 24 3e e0 5b 05 3e
       -0.011007964 0.051840805 0.16025256 0.13023329
000140 98 e9 27 bd 4f 45 33 3d 32 f3 20 be 03 5c 83 bd
       -0.040994257 0.04376727 -0.15717772 -0.06414034
000150 8d a7 df bc 64 41 3b 3d 87 dd 00 3e fe 31 1c 3e
       -0.027301574 0.04571666 0.12584506 0.15253446
000160 1a ed 44 3d 0a 52 15 bb 76 31 95 3d 4e 61 cb 3b
       0.04807768 -0.0022784495 0.072848246 0.006206668
000170 b8 8e e9 3d ff 83 04 3e fc 28 8d bd d8 1c 10 3e
       0.114041746 0.12940978 -0.06892583 0.14073503
000180 33 b8 0d 3e fd 76 ee 3d ff 70 85 bd f5 3a 0a 3e
       0.13839798 0.11643789 -0.06515693 0.13499053
000190 94 b0 35 bc b2 c3 56 3c 75 c2 a3 3c 21 68 15 3e
       -0.011089463 0.013108181 0.019990185 0.14590503
0001a0 7f 4a 5e bd 5c 9c f4 bc 78 c1 06 be 1c 31 49 3c
       -0.054270264 -0.029859714 -0.1315974 0.012279775
0001b0 62 61 ec bc 85 5c f9 bc 55 e5 07 3e ae c5 06 3e
       -0.02885503 -0.030439625 0.13271077 0.13161346
0001c0 0c a0 d1 3d 24 ba 80 bb e5 e8 e6 3d 17 ce 0f 3e
       0.10235605 -0.0039284397 0.1127489 0.14043461
0001d0 3d 47 e1 3c cc e5 23 3d 5b 4c 51 bd 94 a8 41 be
       0.02749979 0.040014073 -0.05109821 -0.18911964
0001e0 09 f4 1e 3e f9 de 2b be c0 89 98 bd 97 3d c9 3c
       0.1552278 -0.16784276 -0.07448149 0.024565501
0001f0 48 7a 45 be 2b fe 46 bd 30 66 b5 3d 99 2d f0 bc
       -0.19284928 -0.048582237 0.08857381 -0.029318618
000200 57 b2 94 3d 92 d8 8f bd 4e a5 bb 3c 24 5a 0f 39
       0.07260578 -0.070237294 0.022905972 0.00013671123
000210 40 8c 22 3e cd 23 21 bd b1 45 d9 bc 9a 20 8e bc
       0.15873814 -0.039340783 -0.02652249 -0.01734953
000220 2f 61 cb 38 67 87 f2 3d 54 b2 69 bd 31 0c 50 3d
       9.697896e-05 0.11842232 -0.057054833 0.050792877
000230 19 f2 0d 3c 9b 2d c6 3c ed c8 1f bd 9e e4 00 3d
       0.008663678 0.024191668 -0.039009977 0.031468026
000240 94 84 0c 3e 37 af 2e bc 59 fc b6 bd 3d 3e bc 3c
       0.1372245 -0.010661892 -0.0893485 0.022978896
000250 99 ae 07 bd 15 9e 16 bd 26 9b 26 3e 64 b4 0d 3e
       -0.033125494 -0.036771853 0.16270122 0.13838345
000260 3b 14 f3 3d ee 90 35 3d 1a 12 05 bc 2a 95 d8 bb
       0.11869093 0.04432767 -0.0081219915 -0.0066095786
000270 48 9d 1b 3e db b0 0d 3e e1 6d 00 be 80 d1 b7 bc
       0.15196717 0.13836996 -0.12541915 -0.022438765
000280 7a 22 b0 3d aa d0 29 bd 7c 5a 24 be 5f 05 2c 3e
       0.08600326 -0.041458763 -0.16050142 0.16798924
000290 35 e6 cb bd 1c d9 a1 3d 85 31 05 be ff 69 17 3e
       -0.09956018 0.079027385 -0.13007171 0.14786528
0002a0 1c b8 ec bd aa ab 6c bd bd 01 47 be f4 79 76 3d
       -0.115585536 -0.0577809 -0.19434257 0.060174897
0002b0 f4 ed 07 3e 47 54 1e bd ab f0 04 bc 84 e0 f2 3d
       0.13274366 -0.038654592 -0.00811402 0.11859229
0002c0 54 31 43 bd e7 6a ec 3d 7e 64 11 3e 02 bf dd 3d
       -0.047654465 0.115438275 0.14198491 0.108274475
0002d0 b3 04 be bc 2b 3a 28 bc 8c 5e 98 bd d0 48 8d bd
       -0.0231956 -0.010267775 -0.074399084 -0.068986535
0002e0 47 bf 07 3e 28 cd 98 3c 58 d8 4c bd bc df 94 bd
       0.1325656 0.018652514 -0.05001101 -0.072692364
0002f0 f5 a6 9e bd 59 d8 e0 3c f0 72 19 3e 4a 22 23 be
       -0.07746688 0.027446913 0.14985251 -0.15931049
000300 57 1d 70 bd 8d 5d 4a bd a5 98 09 be c5 89 f0 bd
       -0.05862173 -0.049405623 -0.13437136 -0.117450275
000310 ef dd cf bd 98 1e fa 3c be 69 95 bd 61 d2 9c 3d
       -0.10149752 0.030532166 -0.07295559 0.07657314
000320 fe e6 37 3d eb 03 9c bd 98 bf a6 3d d0 ae 1a be
       0.044898026 -0.07617935 0.08142012 -0.15105748
000330 87 9d c9 bd 7e 8f 0b be f9 87 c5 39 03 95 e3 3c
       -0.09844499 -0.13628957 0.00037676076 0.027781015
000340 60 53 3c 3b 91 b1 8a ba ce f8 19 be c1 3f a5 3d
       0.0028736219 -0.0010581483 -0.15036318 0.08068801
000350 34 42 65 bd 34 cd 31 bd 29 72 3f 3d d2 93 15 bc
       -0.05597134 -0.043408588 0.04673973 -0.009129481
000360 b9 f0 1e 3c a2 8b 52 bd 6f 92 43 3d e6 b8 5d bd
       0.009700947 -0.051402695 0.04774707 -0.05413141
000370 c4 ee cc bd b3 69 97 3d c4 2e 0f bd 49 1d 8e bd
       -0.100064784 0.073932074 -0.03495671 -0.069391795
000380 65 dd 81 3a 4d ec d8 bd d5 76 03 be 3b 9a 18 3c
       0.00099079 -0.10591946 -0.128383 0.009314115
000390 18 3e 91 bd 71 4a 3f 3d 9d 91 bc bd fb ac a8 3d
       -0.070919216 0.046701852 -0.09207461 0.082361184
0003a0 1e 3c 0e bd 45 07 b1 3d 0d c5 40 3d 82 8e 88 ba
       -0.0347253 0.08643965 0.047062922 -0.0010418447
0003b0 6f ac cc 3c 94 f1 ad bd 8a 33 11 3d dc 69 28 bd
       0.024984566 -0.08493343 0.035449542 -0.04111658
0003c0 69 fa 42 3d 45 3f 18 be 11 f7 a3 bd a5 5f 5d 3c
       0.04760209 -0.14867885 -0.080061086 0.013511573
0003d0 f4 83 84 bd 8e b3 ff bd 6c 90 d4 bd d4 9b c8 bd
       -0.064704806 -0.12485419 -0.10379109 -0.09795347
0003e0 90 26 a4 bd e8 c5 d5 bd a6 25 46 bd 8e 45 ca bd
       -0.08015168 -0.10438138 -0.048375748 -0.09876548
0003f0 c8 81 0c be 18 a6 0b bc df a8 10 be 8c 9e 35 3d
       -0.13721383 -0.008523487 -0.14126919 0.044340655

bias f4 [32]
000000 90 bb a6 3d d1 af 55 bc 80 1e 1a 3d fd 3d 95 3c
       0.081412435 -0.013042406 0.037626743 0.018218035
000010 75 4a ed bd c8 43 38 3d 73 3a 0a 3d 80 d8 8f 3d
       -0.11586467 0.044986516 0.033747148 0.07023716
000020 7a 49 6f 3d 44 d8 db 3c 4c b6 8e bc ff c5 66 bc
       0.058419682 0.026836522 -0.01742091 -0.014085292
000030 7c 10 00 3d 12 2f 60 3c cd ba b2 3d a3 a5 95 3d
       0.03126572 0.013683097 0.08727036 0.07306983
000040 2e 7d 03 3e 8c 2d ce bd 04 55 5f bd 2e 8d a2 ba
       0.12840721 -0.10067281 -0.054524437 -0.0012401694
000050 82 ac 32 bd 3b 14 96 3d fd 9e 89 bd 57 37 93 3d
       -0.043621548 0.073280774 -0.06719778 0.071882896
000060 15 c7 ec 3c a7 df 34 3e 38 58 70 bd 5e c3 ff 3d
       0.028903523 0.17663442 -0.058677882 0.12488435
000070 46 cc 8f bc cc 58 6e bc 16 26 5f bd ee 2f a1 bd
       -0.01755346 -0.014547538 -0.05447968 -0.0787047

weight f4 [1, 32]
000000 82 5c 14 3e 82 1b 77 be ac 7a 35 be e6 fd cf 3c
       0.14488414 -0.24131587 -0.17722577 0.025389623
000010 b0 86 df 3d 5f 04 38 3e e0 16 6c be be ba 9b 3d
       0.109143615 0.17970417 -0.23055601 0.076039776
000020 5b 68 4f 3e 11 22 43 be ba 2e d9 bd e7 06 37 be
       0.20254652 -0.19055964 -0.106046155 -0.17873727
000030 f2 c3 05 be b3 d8 85 be f9 2e 3e 3d 43 9e 7e be
       -0.13063028 -0.2614189 0.046431515 -0.2486506
000040 f9 00 66 be b8 bd 41 3e 33 7b 50 3e df 17 7d be
       -0.22461309 0.18920028 0.20359497 -0.24716137
000050 28 de e7 bd b6 fd 39 3e d8 31 c7 3d 1d 3f 45 3e
       -0.1132167 0.1816319 0.09726304 0.19262357
000060 09 d2 67 be 64 68 41 be be 6d ef 3d c1 10 46 bd
       -0.22638716 -0.18887478 0.116908535 -0.04835582
000070 f0 6e 11 be 3d 5b cf bd ff 60 1d 3e 96 da 04 3e
       -0.14202476 -0.10124824 0.15369032 0.12974009
